Model
Model: "sequential"
________________________________________________________________________________
Layer (type)                        Output Shape                    Param #     
================================================================================
conv2d_2 (Conv2D)                   (None, 1018, 1018, 16)          2368        
________________________________________________________________________________
dropout_1 (Dropout)                 (None, 1018, 1018, 16)          0           
________________________________________________________________________________
conv2d_1 (Conv2D)                   (None, 1016, 1016, 16)          2320        
________________________________________________________________________________
dropout (Dropout)                   (None, 1016, 1016, 16)          0           
________________________________________________________________________________
max_pooling2d (MaxPooling2D)        (None, 508, 508, 16)            0           
________________________________________________________________________________
conv2d (Conv2D)                     (None, 506, 506, 16)            2320        
________________________________________________________________________________
flatten (Flatten)                   (None, 4096576)                 0           
________________________________________________________________________________
dense_1 (Dense)                     (None, 64)                      262180928   
________________________________________________________________________________
dense (Dense)                       (None, 2)                       130         
================================================================================
Total params: 262,188,066
Trainable params: 262,188,066
Non-trainable params: 0
________________________________________________________________________________


