Model
Model: "sequential"
________________________________________________________________________________
Layer (type)                        Output Shape                    Param #     
================================================================================
conv2d_2 (Conv2D)                   (None, 1022, 1022, 16)          448         
________________________________________________________________________________
dropout_1 (Dropout)                 (None, 1022, 1022, 16)          0           
________________________________________________________________________________
conv2d_1 (Conv2D)                   (None, 1020, 1020, 16)          2320        
________________________________________________________________________________
dropout (Dropout)                   (None, 1020, 1020, 16)          0           
________________________________________________________________________________
max_pooling2d (MaxPooling2D)        (None, 510, 510, 16)            0           
________________________________________________________________________________
conv2d (Conv2D)                     (None, 508, 508, 16)            2320        
________________________________________________________________________________
flatten (Flatten)                   (None, 4129024)                 0           
________________________________________________________________________________
dense_1 (Dense)                     (None, 64)                      264257600   
________________________________________________________________________________
dense (Dense)                       (None, 2)                       130         
================================================================================
Total params: 264,262,818
Trainable params: 264,262,818
Non-trainable params: 0
________________________________________________________________________________


