Model
Model: "sequential"
________________________________________________________________________________
Layer (type)                        Output Shape                    Param #     
================================================================================
conv2d_2 (Conv2D)                   (None, 1020, 1020, 16)          1216        
________________________________________________________________________________
dropout_1 (Dropout)                 (None, 1020, 1020, 16)          0           
________________________________________________________________________________
conv2d_1 (Conv2D)                   (None, 1018, 1018, 16)          2320        
________________________________________________________________________________
dropout (Dropout)                   (None, 1018, 1018, 16)          0           
________________________________________________________________________________
max_pooling2d (MaxPooling2D)        (None, 509, 509, 16)            0           
________________________________________________________________________________
conv2d (Conv2D)                     (None, 507, 507, 16)            2320        
________________________________________________________________________________
flatten (Flatten)                   (None, 4112784)                 0           
________________________________________________________________________________
dense_1 (Dense)                     (None, 64)                      263218240   
________________________________________________________________________________
dense (Dense)                       (None, 2)                       130         
================================================================================
Total params: 263,224,226
Trainable params: 263,224,226
Non-trainable params: 0
________________________________________________________________________________


